data.pth (torch, 8101 bytes, 6 tensors)

l1.weight f4 [8, 112]
0	0xbed734bb	-0.42032418
1	0xbeb1f5e2	-0.34757906
2	0xbe350cf3	-0.17680721
3	0x3ddb7d6e	0.10717283
4	0x3e048282	0.1294041
5	0x3ebd90df	0.3702459
6	0xbe0389a6	-0.12845477
7	0xbda08894	-0.0783855
8	0x3e46a4cf	0.19398807
9	0xbe3d13b7	-0.18464552
10	0x3e2037b2	0.15646246
11	0xbe0537a7	-0.13009511
12	0x3e87cd7e	0.26523966
13	0x3f373191	0.7156001
14	0xbe87543c	-0.26431453
15	0x3d95611d	0.072939135
16	0xbc316008	-0.010826118
17	0x3de3230f	0.11090671
18	0x3f024fa2	0.5090276
19	0x3e4b4780	0.19851494
20	0xbd95fbe7	-0.07323437
21	0xbea0324d	-0.31288376
22	0x3ca2d816	0.019878428
23	0xbf039147	-0.5139355
24	0x3e4918ce	0.19638368
25	0x3d6bc112	0.057557173
26	0x3ee51eb5	0.4474999
27	0x3efe0eb8	0.49620605
28	0xbe7cd8f6	-0.24692139
29	0xbef61aca	-0.48067313
30	0xbe27ea76	-0.16398033
31	0x3e6bc1ef	0.23023199
32	0x3ebfeb71	0.37484315
33	0x3f041b45	0.5160411
34	0x3e8ce4db	0.27518353
35	0xbe4febcc	-0.20304793
36	0x3f3fec17	0.7496962
37	0x3ed3845a	0.41311914
38	0xbe40b6d6	-0.18819746
39	0x3eec4460	0.46145916
40	0xbde5f632	-0.11228599
41	0x3f48cb2b	0.7843501
42	0xbe5af2a2	-0.2138162
43	0xbe8acf7a	-0.27111417
44	0x3dbb6da6	0.09151773
45	0xbe424671	-0.18972184
46	0xbe7402d9	-0.23829211
47	0xbdcb8666	-0.09937744
48	0x3bea66e5	0.0071533793
49	0x3d885ed3	0.06658711
50	0x3f1c2371	0.6099158
51	0xbdbc39b1	-0.09190691
52	0x3f3d2e44	0.7389872
53	0x3e917b8f	0.2841458
54	0xbeb94732	-0.3618713
55	0xbd0db086	-0.034592174
56	0x3f0b4924	0.5440848
57	0xbec97331	-0.39345697
58	0x3edac61a	0.42729264
59	0xbed5f4dc	-0.41788375
60	0x3ef5ad0a	0.4798358
61	0x3e7bfd7d	0.24608417
62	0x3e233f22	0.15942052
63	0x3c0f8b25	0.008761202
64	0x3e16c0cb	0.14721982
65	0x3eb4d598	0.3531921
66	0x3d63ef30	0.05564803
67	0x3d0cd2e7	0.03438082
68	0x3ebfd664	0.37468255
69	0x3e28d491	0.16487338
70	0x3e7d60ac	0.24743909
71	0x3f06f585	0.52718383
72	0xbd4e79b1	-0.050409023
73	0x3ed3bc66	0.41354674
74	0x3ec9796b	0.39350447
75	0x3e18f9cc	0.1493904
76	0xbed60884	-0.41803372
77	0x3e9bde89	0.30443218
78	0xbe8b9209	-0.27259853
79	0x3e0f413d	0.1398973
80	0x3d53d754	0.051719025
81	0x3e297166	0.16547164
82	0x3d95aafd	0.07308004
83	0x3e3a8da0	0.18218088
84	0xbe092b3e	-0.13395402
85	0x3e8f1972	0.279491
86	0xbe05956c	-0.13045281
87	0xbdd22a06	-0.102619216
88	0x3f15000a	0.58203185
89	0x3edbc1a2	0.42921168
90	0x3ed33ed4	0.41258872
91	0x3e798d7c	0.24370378
92	0x3cfb5b31	0.030683132
93	0xbe9f7fb8	-0.3115213
94	0x3e1d6cec	0.15373582
95	0x3ece4d5a	0.4029339
96	0xbed3395d	-0.41254702
97	0xbe97b2ec	-0.29628694
98	0x3e880668	0.26567388
99	0xbf17b255	-0.5925649
100	0xbe8f0805	-0.27935806
101	0xbcf9bb3d	-0.03048479
102	0x3e128b22	0.14310887
103	0xbe1e3937	-0.15451513
104	0x3eb004b8	0.343786
105	0xbf2753a0	-0.65361977
106	0x3d8e9f95	0.069640316
107	0x3e860d54	0.26182044
108	0x3f15e4d9	0.5855232
109	0x3de15c42	0.11003925
110	0x3ea5044f	0.3222985
111	0x3e56bf96	0.20971522
112	0xbe144d75	-0.14482673
113	0x3f2e3e95	0.6806424
114	0x3f22acd4	0.63544965
115	0x3f37c13f	0.71779245
116	0x3e7fd022	0.2498174
117	0xbe02498e	-0.12723371
118	0xbecbc7ce	-0.39800876
119	0xbedc947d	-0.43082038
120	0x3d597c3c	0.053096995
121	0xbe5cab5b	-0.21549742
122	0x3bfd02b4	0.0077212695
123	0x3f574891	0.840951
124	0x3e24b7da	0.16085759
125	0x3f3c3d51	0.7353106
126	0x3e3f6260	0.18689871
127	0x3f217364	0.630667
128	0x3f1682cc	0.5879333
129	0x3f64f1ad	0.8943127
130	0x3ec98fdb	0.39367566
131	0x3e99ea0a	0.3006137
132	0x3f03345f	0.51251787
133	0x3e73d142	0.23810294
134	0x3f0dc3c0	0.55376816
135	0x3faf8673	1.3712906
136	0x3e69b68a	0.2282354
137	0xbf27dba8	-0.65569544
138	0x3eb4944f	0.352694
139	0xbe484514	-0.19557601
140	0x3e81f0e4	0.25379097
141	0x3eb75472	0.35806614
142	0x3e819cfd	0.25315085
143	0x3f08c212	0.5342113
144	0x3e1df108	0.15423977
145	0x3d0b4201	0.033998493
146	0xbd89fffe	-0.0673828
147	0x3e19a45d	0.15004106
148	0xbe8779fd	-0.26460257
149	0xbe2d2d83	-0.16911893
150	0x3f083c72	0.5321723
151	0xbd3e4ee3	-0.04646195
152	0xbe95560d	-0.29167214
153	0x3f32c454	0.6983082
154	0x3e4bb5c4	0.19893557
155	0xbf247aad	-0.6424969
156	0x3eeb715b	0.4598492
157	0xbf2185bd	-0.63094693
158	0xbf23be11	-0.63961893
159	0x3e0244ff	0.12721632
160	0x3ecbe1d7	0.3982074
161	0xbf4a5381	-0.79033667
162	0x3e86420e	0.2622227
163	0x3ec7c3b3	0.39016494
164	0x3f0cde1a	0.550264
165	0x3f0b02a0	0.5430088
166	0xbec85850	-0.39129877
167	0x3d9bc12c	0.07605204
168	0x3eef7137	0.46766064
169	0x3f3d529a	0.73954165
170	0xbe2fd712	-0.17171887
171	0x3f00ad7f	0.50264734
172	0x3e5b1276	0.21393761
173	0x3cbb3174	0.02285073
174	0x3e71eec8	0.23626244
175	0x3eabddde	0.3356771
176	0x3e851f6d	0.26000538
177	0xbc05b5bb	-0.008161004
178	0x3e8078a1	0.25092033
179	0x3eb62a4a	0.3557914
180	0xbe18a4a7	-0.1490656
181	0x3f3fcb43	0.7491953
182	0x3f249a78	0.642982
183	0x3ed98d9f	0.4249086
184	0x3f14a09a	0.5805756
185	0x3e2d524b	0.16925924
186	0x3d8f189d	0.069871165
187	0x3e697990	0.22800279
188	0xbd61c888	-0.055122882
189	0xbe152ab9	-0.14567079
190	0x3e13db9d	0.14439245
191	0x3ed99352	0.4249521
192	0x3e7f60ea	0.24939314
193	0x3f52555c	0.821615
194	0x3f0d9fae	0.55321777
195	0x3f1394aa	0.5764872
196	0x3f0f9de5	0.561003
197	0x3eb00658	0.3437984
198	0x3f03cc72	0.51483834
199	0x3ee6c522	0.45072275
200	0x3eddfad6	0.43355435
201	0x3e7f2469	0.24916233
202	0x3e3437d0	0.17599416
203	0xbca64a18	-0.020299003
204	0x3eb6111e	0.35559934
205	0x3f117c00	0.56829834
206	0xbcf62139	-0.030045139
207	0x3f177ceb	0.59174985
208	0xbef90fc2	-0.48644835
209	0x3f51046b	0.81647366
210	0xbda4bf00	-0.08044243
211	0x3f91bcbb	1.1385721
212	0x3ef2e879	0.47442988
213	0xbec8f7dd	-0.39251605
214	0x3e76cd4d	0.24101754
215	0x3e3f4090	0.18676972
216	0xbe96b896	-0.29437703
217	0x3f1facc1	0.62372977
218	0x3df168c1	0.11787558
219	0xbe975e82	-0.2956429
220	0xbdeb4c01	-0.11489106
221	0x3f183370	0.5945349
222	0xbe631a46	-0.22177991
223	0x3f559e1f	0.834444
224	0x3e96dccb	0.29465327
225	0xbe79a0f1	-0.243778
226	0x3ec729bc	0.38899028
227	0xbeaf3709	-0.34221676
228	0xbcb4c6d5	-0.022067467
229	0xbf15354d	-0.58284456
230	0x3e6a0e95	0.22857125
231	0xbe7f4eb5	-0.24932368
232	0xbda0a929	-0.07844765
233	0x3e04aead	0.12957259
234	0xbe5b1ecf	-0.21398471
235	0x3f28b052	0.65894043
236	0xbda11184	-0.07864669
237	0xbed16621	-0.4089823
238	0x3edbd329	0.4293454
239	0xbe884cbb	-0.2662104
240	0xbe3c13ef	-0.18366979
241	0xbec1d4e0	-0.37857723
242	0x3ea48f56	0.32140607
243	0xbd12c4fd	-0.035832394
244	0x3ee60afe	0.4493026
245	0x3e99f9ec	0.30073488
246	0xbe8a38c0	-0.26996422
247	0x3f27f481	0.6560746
248	0x3e9e876e	0.309627
249	0xbef19686	-0.47185153
250	0x3ec94a4c	0.39314497
251	0xbe36dc0a	-0.17857376
252	0x3ea8f715	0.3300101
253	0x3ee53201	0.44764712
254	0x3e38619d	0.18005987
255	0xbda344f4	-0.07972136

l1.bias f4 [8]
0	0x3f0c4948	0.5479932
1	0x3f83e59e	1.0304449
2	0x3f3d3cc7	0.73920864
3	0x3f20178d	0.62535936
4	0x3f499e73	0.787574
5	0x3f2e5bf7	0.6810908
6	0x3f91507e	1.1352689
7	0x3ef841ba	0.48487645

l2.weight f4 [8, 8]
0	0xbe4cdb80	-0.20005608
1	0x3fed8072	1.8554823
2	0x3f6ec5da	0.9327065
3	0xbf338a84	-0.70133233
4	0xbfb94578	-1.4474325
5	0xbea4ec4f	-0.3221154
6	0xbdb82399	-0.08991165
7	0xbe354b97	-0.17704616
8	0xbf1e3b9d	-0.6180971
9	0xbe415fff	-0.18884276
10	0x3f60eb83	0.8785936
11	0x3f14b456	0.5808767
12	0x3fe715d2	1.8053534
13	0x3fd574a8	1.6676226
14	0x3fdb1c95	1.7118098
15	0xbd09ad9d	-0.033612836
16	0x3f1c0503	0.6094515
17	0x3f5234d7	0.8211188
18	0x3eb53e29	0.35398987
19	0x3f912c97	1.1341733
20	0xbce7fda0	-0.02831918
21	0x3f4fb1c5	0.8113063
22	0xbf587cf6	-0.84565675
23	0xbf86b63a	-1.0524361
24	0xbfb1da11	-1.3894674
25	0x3f54c737	0.8311648
26	0x3f41ccbe	0.75703037
27	0x3f80c365	1.005963
28	0x3ddf4c9f	0.10903286
29	0x3e0d73bf	0.13813685
30	0xbed7b37a	-0.42129117
31	0x3fa8dd19	1.3192474
32	0xbf9dc6fd	-1.2326351
33	0x3fbf3c86	1.4940345
34	0x3e87e527	0.26542017
35	0xbd51c96b	-0.051217478
36	0x3f484545	0.78230697
37	0x3f9d6c79	1.2298728
38	0xbec1bfe0	-0.37841702
39	0xbf14fe96	-0.5820097
40	0x3f6ccad5	0.92497
41	0x3e262cdb	0.16228049
42	0x3f363239	0.71170384
43	0x3fb32622	1.3996012
44	0x3ed47b43	0.4150029
45	0xbeda8f43	-0.42687425
46	0xbf38c7d1	-0.72179896
47	0xbf9b6125	-1.2139021
48	0x3f431d91	0.7621699
49	0x3eb3bef9	0.35106638
50	0x3fb5178f	1.4147815
51	0x3f9039c3	1.1267627
52	0xbea71eb2	-0.32640606
53	0xbfb83103	-1.4389957
54	0xbe9520a9	-0.2912648
55	0x3fdf67bc	1.7453532
56	0x3f8aef67	1.085431
57	0x3fb89294	1.4419732
58	0xbfef7bd3	-1.8709663
59	0x3f74d474	0.9563668
60	0xbf187dda	-0.59567034
61	0xbf635b9b	-0.88811654
62	0x3f94a5c5	1.1613089
63	0xbe99dca3	-0.30051145

l2.bias f4 [8]
0	0x3f4b711f	0.79469484
1	0x3eb7a5f2	0.35868794
2	0xbdfc6f9f	-0.123259775
3	0xbf03be11	-0.51461893
4	0x3f0a0235	0.5390962
5	0x3ec6f1b8	0.38856292
6	0x3f02cbcc	0.5109222
7	0x3f1be45c	0.60895324

l3.weight f4 [11, 8]
0	0x3f68f87c	0.9100416
1	0xbf4fcfb5	-0.8117631
2	0xbfa2b8dd	-1.2712666
3	0x3e4f6d0a	0.20256439
4	0x3d4f190a	0.05056099
5	0xbf2d4349	-0.67680794
6	0x3eede67c	0.46464908
7	0xbfacef22	-1.3510478
8	0xbfc6c521	-1.5528909
9	0x3ec126ff	0.37725064
10	0xbf0041df	-0.5010051
11	0xbfd0a436	-1.6300113
12	0xbfbda119	-1.4814788
13	0x3ed1d866	0.4098541
14	0xbcbb65ce	-0.022875693
15	0x3e9d70d7	0.30750152
16	0x3f09ceb3	0.5383102
17	0xbeed7c95	-0.4638411
18	0x3e918ce2	0.28427798
19	0xbd5ca170	-0.053864896
20	0x3f23e046	0.6401409
21	0xbe9d8bd3	-0.3077074
22	0xbf869268	-1.051343
23	0xbfade600	-1.3585815
24	0x3f3ae5ed	0.7300709
25	0xbed2b9ce	-0.41157383
26	0xc002f636	-2.0462775
27	0xbff98c52	-1.9495947
28	0xbf2cf1a1	-0.67556196
29	0xbf811ac2	-1.0086291
30	0x3eca7bb6	0.3954751
31	0x3f39487b	0.7237622
32	0xbf7fb7ec	-0.9989002
33	0x3f9fdb7c	1.2488856
34	0xbfddaa21	-1.7317544
35	0xbfd7f266	-1.6870849
36	0x3ef73689	0.48283795
37	0xbf55821f	-0.83401674
38	0xbf377907	-0.7166905
39	0xbfddc3eb	-1.7325414
40	0x3f0b3b94	0.54387784
41	0xbff6d49f	-1.9283637
42	0xbd90cddd	-0.07070515
43	0xbf3f14fa	-0.7464138
44	0x3f334c3a	0.7003819
45	0x3e511542	0.20418265
46	0xbef554f5	-0.4791638
47	0x3e5d5865	0.21615751
48	0xbf988dde	-1.1918294
49	0xbd82d0f9	-0.063875146
50	0xbf208961	-0.62709624
51	0x3ed5990a	0.41718322
52	0xbfe7b43c	-1.8101878
53	0xbf1e02df	-0.6172313
54	0x3f255838	0.64587736
55	0xbe4d41bd	-0.20044608
56	0xbf8b0a12	-1.0862448
57	0x3ead339f	0.33828446
58	0xbe7e76a0	-0.2484994
59	0xbc8e3ba1	-0.017362418
60	0x3ebb34a6	0.36563605
61	0x3e8fc5f1	0.28080705
62	0xbd1eb570	-0.03874725
63	0xbfd15bcf	-1.6356143
64	0x3ec21877	0.3790929
65	0xbf18236e	-0.5942906
66	0x3edd548e	0.43228573
67	0xbf56889c	-0.838022
68	0xbe6f9be4	-0.23399311
69	0x3f62d865	0.8861144
70	0x3e8b1b12	0.2716909
71	0xbf9d6d0b	-1.2298902
72	0xbf9e3d0a	-1.2362378
73	0xbfcccd17	-1.6000088
74	0x3f3d2f7a	0.7390057
75	0xbfbb98f1	-1.4656049
76	0xbf993adc	-1.1971087
77	0x3f38e10c	0.72218394
78	0x3d26947c	0.04066895
79	0x3ef6ad61	0.48179153
80	0x3d9edfcb	0.07757529
81	0x3e4ee016	0.2020267
82	0xbef5234e	-0.47878498
83	0xbeca1407	-0.39468405
84	0x3e8a5b82	0.2702294
85	0xbf75c17d	-0.95998365
86	0xbfb99477	-1.4498433
87	0x3eaf1daa	0.3420232

l3.bias f4 [11]
0	0x3e57b0d5	0.2106355
1	0x3d71e913	0.059060168
2	0xbe67db59	-0.22642268
3	0x3e8e97c2	0.27850157
4	0x3ef9bfc0	0.48779106
5	0xbe437893	-0.19088964
6	0xbe23308e	-0.15936491
7	0xbefa6e12	-0.48912102
8	0xbf112b52	-0.56706727
9	0x3e931012	0.28723198
10	0xbeb6ce2e	-0.35704178
